results/MoveToGoal3/MoveToGoal.onnx (onnx, 72639 bytes, 7 tensors)

action_model._continuous_distribution.log_sigma f4 [1, 2]
0	0xbe9ee199	-0.31031492
1	0xbe06e939	-0.13174905

action_model._continuous_distribution.mu.bias f4 [2]
0	0xbdb202b3	-0.08691921
1	0x3c0c44f6	0.008561363

action_model._continuous_distribution.mu.weight f4 [2, 128]
0	0x3d99179b	0.074752055
1	0x3d4f8b00	0.05066967
2	0xbcfbeef5	-0.030753592
3	0x3d973a9f	0.07384228
4	0x3dcfcb1d	0.10146163
5	0x3c27e259	0.010246837
6	0x3d87e686	0.06635766
7	0xbd22da7c	-0.039759144
8	0xbce6acd1	-0.028158577
9	0xbbcf5d3e	-0.006328254
10	0xbda7fb83	-0.08202269
11	0xbd0058c8	-0.03133467
12	0x3d144c11	0.036205355
13	0x3defdb00	0.11711693
14	0xbcfa4459	-0.030550169
15	0x3d89a366	0.06720619
16	0xbcefa1e1	-0.029251995
17	0x3c25886b	0.010103325
18	0x3db0e41f	0.08637261
19	0x3c5b8fd3	0.01340099
20	0x3bec2f23	0.0072077676
21	0x3d9100fd	0.070802666
22	0x3de2367b	0.110455476
23	0x3bbde4a6	0.0057950793
24	0x3da43571	0.08018006
25	0x3be8397a	0.00708693
26	0x3bd67f85	0.006545963
27	0xbd38a6ad	-0.04508083
28	0x3d8b307b	0.06796356
29	0x3c4647df	0.012102096
30	0xbc76b5bb	-0.015057976
31	0x3d14561b	0.03621493
32	0x3c18207a	0.009285087
33	0xbb327f89	-0.0027236661
34	0xbc0eb465	-0.008710002
35	0xbc00891a	-0.007845188
36	0x3cdcc356	0.026948612
37	0x3d9991fd	0.07498548
38	0x3bca0fc4	0.00616643
39	0x3c5fd6d3	0.013662058
40	0x3dcb531e	0.09927963
41	0x3daf9c0b	0.08574685
42	0xbdb24215	-0.087040104
43	0xbd44de3a	-0.048063494
44	0xbcdb13f2	-0.02674291
45	0xbcafe57c	-0.021471731
46	0x3d3a2c45	0.045452375
47	0xbd508e65	-0.050917048
48	0xbcff01ee	-0.03112885
49	0xba12b198	-0.00055959215
50	0xbc92db51	-0.017926844
51	0xbb6d7b8d	-0.0036236972
52	0xbd260477	-0.0405316
53	0x3de91ac8	0.11382061
54	0xbc85c538	-0.016329393
55	0x3d95187e	0.07280062
56	0x3de9bf70	0.11413467
57	0xbc7b9812	-0.015356081
58	0xbcb74806	-0.02237321
59	0x3d636e85	0.05552532
60	0xbce1ccf4	-0.02756355
61	0x3d3900d4	0.045166805
62	0xbceced2b	-0.028921684
63	0xbcd5d958	-0.026104614
64	0x3ab4521d	0.0013757382
65	0xbd1d6e71	-0.038435403
66	0x3d7039e5	0.058648963
67	0x3c01ba13	0.007917899
68	0xbc701a1b	-0.0146546615
69	0xbd5163a0	-0.0511204
70	0xbd02b777	-0.031913247
71	0x3da284bd	0.07935474
72	0x3d434786	0.047675632
73	0x3cb0e332	0.02159271
74	0xbcbdcd97	-0.023169322
75	0x3bab263a	0.005223063
76	0xbd7af84a	-0.061271943
77	0x39187e4b	0.00014542897
78	0xbd104141	-0.03521848
79	0xbd6d9227	-0.05800071
80	0x3d6aafb8	0.057296485
81	0x3d95dbbc	0.07317302
82	0x3d99844b	0.07495936
83	0xbc80eafe	-0.015737053
84	0x3d582384	0.052768245
85	0xbc9d251a	-0.01918273
86	0x3b560649	0.0032657555
87	0x3d8badfb	0.068202935
88	0x3d870c2a	0.06594117
89	0x3db39a98	0.08769721
90	0xbc739ec6	-0.0148693975
91	0x3d244724	0.040106907
92	0x3d3d4595	0.046208937
93	0xbd454621	-0.048162583
94	0x3ab9f009	0.0014185916
95	0xbd63434c	-0.0554841
96	0x3cd6b5fb	0.026209822
97	0x3ce8ef4e	0.028434422
98	0xb99c94ad	-0.0002986541
99	0x3bc8f451	0.0061326404
100	0xbd343a0c	-0.04400067
101	0xbd2da9bc	-0.0423982
102	0x3d209ef5	0.039214093
103	0xbcc16ab3	-0.023610448
104	0xbd0cdbf1	-0.03438944
105	0x3c93f49d	0.018060977
106	0x3d814595	0.063121
107	0x3dacbb9b	0.084342204
108	0x3dc70fc2	0.097198024
109	0xbc164530	-0.009171769
110	0xbceb81fd	-0.028748507
111	0xbb72df4e	-0.003705937
112	0xbd9b3fb4	-0.0758051
113	0xbd346b99	-0.044047926
114	0xbdb849d4	-0.089984566
115	0xbcdebe27	-0.027190281
116	0x3cd9a156	0.026566189
117	0x3d46fa61	0.048578624
118	0xbd3c4ce1	-0.045971755
119	0x3c9185cb	0.017763993
120	0x3da9d262	0.082920805
121	0x3db600b4	0.08886853
122	0x3a2ba86f	0.0006548231
123	0x3c092b4e	0.008372141
124	0xbbefa1f1	-0.007313006
125	0x3d8ad24c	0.06778392
126	0xbd4f489e	-0.050606363
127	0x3d6d52c1	0.05794025
128	0xbc9509f0	-0.018193215
129	0xbd0fca70	-0.03510517
130	0x3d84228c	0.06451902
131	0xbcbb22a7	-0.022843672
132	0xbd362174	-0.044465497
133	0xbd8acb08	-0.067770064
134	0xbc92fe0b	-0.017943403
135	0x3c80f219	0.015740441
136	0xbd277dbd	-0.040891398
137	0x3d1d0fdd	0.038345207
138	0x3d72ddf0	0.059293687
139	0x3d4bdcb8	0.04977104
140	0x3d372680	0.04471445
141	0xbbb02430	-0.0053754076
142	0x3ad6208b	0.0016336603
143	0xbcb9fcb1	-0.0227035
144	0x3c431c80	0.01190865
145	0x3bc5c36d	0.0060352595
146	0x3c32e64a	0.010919163
147	0xbd834ea5	-0.06411485
148	0xbd759de4	-0.05996503
149	0xbc31cd1c	-0.010852125
150	0xbc7de855	-0.015497287
151	0x3d657581	0.056020264
152	0x3b89cc12	0.0042052353
153	0xbd2c0b87	-0.04200318
154	0x3cf63e1f	0.030058919
155	0x3cd73ef5	0.026275137
156	0x3be569d5	0.0070011416
157	0xbdd776a1	-0.105206735
158	0x3d31b10b	0.043381732
159	0x3d96431b	0.07337018
160	0xbd5993a9	-0.053119335
161	0x3d8a27fb	0.06745907
162	0xbd9872b5	-0.07443754
163	0x3d020325	0.03174128
164	0x3bc81dad	0.0061070533
165	0x3d138c8d	0.03602271
166	0x3b2a1333	0.0025951385
167	0xbd963e3e	-0.073360905
168	0xbbde92f5	-0.006792421
169	0xbcda6cc3	-0.02666319
170	0xbd0abeaf	-0.033873256
171	0xbc5719f9	-0.013128751
172	0x3d9e733d	0.07736824
173	0x3c894ef2	0.016761277
174	0x3bac6fb0	0.0052623376
175	0x3cc24cff	0.023718355
176	0x3d8996cc	0.06718215
177	0xba0671c2	-0.00051286456
178	0x3c3a6ecd	0.011378956
179	0x3d1d1a21	0.038354997
180	0xbccf4918	-0.025303409
181	0xbc3300bd	-0.010925469
182	0xbc3a49d3	-0.01137014
183	0xbc26a71a	-0.010171676
184	0x3c3dfa07	0.011595256
185	0x3cd240ac	0.025665604
186	0x3dd3b3e2	0.10337044
187	0xbc61966e	-0.013768775
188	0xbd8d275d	-0.068922736
189	0xbd7f6742	-0.062354334
190	0x3b7f4cfc	0.0038955798
191	0x3cd26400	0.02568245
192	0x3d0fcd91	0.035108153
193	0xbbd11404	-0.00638056
194	0xbb881cbb	-0.0041538156
195	0xbda8da7e	-0.08244799
196	0x3d409c9f	0.047024366
197	0x3d1710b2	0.036881156
198	0x3d3498d9	0.04409108
199	0xbba04aa5	-0.004891711
200	0x3d3789b3	0.044809055
201	0x3c5d3662	0.013501735
202	0x3df7055a	0.120615676
203	0xbda4e350	-0.08051169
204	0xbd19e43c	-0.037571177
205	0xbc5e26a7	-0.01355902
206	0x3d665327	0.056231644
207	0x3d2dd893	0.04244287
208	0xbdaa9dde	-0.08330892
209	0xbd76fd89	-0.060300384
210	0xbd4d5792	-0.05013234
211	0x3d419ba4	0.04726757
212	0xbd68683b	-0.056740027
213	0x3cd8845b	0.0264303
214	0x3d953547	0.072855525
215	0xbd288a3e	-0.041147463
216	0xbcf93f4f	-0.030425696
217	0xbb199bf4	-0.0023438903
218	0xbd311278	-0.043230504
219	0xbcb6f8c2	-0.022335414
220	0x3d8492a2	0.064732805
221	0xbd0a0e54	-0.03370507
222	0x3b45214d	0.0030079663
223	0xbc0ea851	-0.008707122
224	0x3cd563c9	0.026048558
225	0xbdf10837	-0.11769145
226	0x3c215132	0.009846019
227	0x3da21c85	0.07915596
228	0x3c921ce3	0.01783604
229	0x3c41254e	0.011788679
230	0x3c30279e	0.010751633
231	0x3cbd4ec4	0.023108847
232	0x3d2d410d	0.042298365
233	0xbd5980b1	-0.053101245
234	0xbc99b899	-0.01876478
235	0xbbaab87b	-0.00520998
236	0x3c38fbcf	0.011290505
237	0x3c354746	0.011064356
238	0xbd4b919c	-0.04969941
239	0x3ba4178f	0.005007691
240	0xbd15f378	-0.036609143
241	0x3cac6b33	0.02104721
242	0xbb224c70	-0.0024764799
243	0xbd81610b	-0.063173376
244	0x3d1c2336	0.038119517
245	0xbca49ad3	-0.020093357
246	0x3c72c592	0.014817612
247	0xbd52be4b	-0.05145101
248	0xbc8735ba	-0.016505111
249	0x3b8bb947	0.00426403
250	0x3d258b6f	0.040416177
251	0xbd1d027f	-0.03833246
252	0xbc19dfe7	-0.009391761
253	0xbcf651e9	-0.030068355
254	0x3d5c41ab	0.053773563
255	0xbc20f494	-0.009823937

network_body._body_endoder.seq_layers.0.bias f4 [128]
0	0xbbb5da5e	-0.005549713
1	0xbc728ca9	-0.014804044
2	0xbca22a90	-0.019795686
3	0x3ba7af67	0.005117345
4	0xbd247641	-0.04015184
5	0x3cc58dae	0.02411541
6	0x3cfe25f1	0.031023951
7	0xbd63e1f3	-0.055635404
8	0xbd429ebc	-0.047514662
9	0xbd66765f	-0.05626523
10	0x3cb4810b	0.022034189
11	0xbd43bf5e	-0.047789924
12	0xbc02cbeb	-0.007983188
13	0xbcd2478b	-0.02566888
14	0xbabe1d10	-0.0014504511
15	0x3c30c504	0.01078916
16	0x3b38e343	0.002821163
17	0xbc0bfc25	-0.008544003
18	0x3c7c2152	0.015388804
19	0xbab4b7db	-0.0013787703
20	0xbdb47f20	-0.0881331
21	0xbdb06a28	-0.08613998
22	0x3c293e52	0.0103298
23	0xbd050ec7	-0.032484796
24	0xbc84c71f	-0.01620823
25	0x39c60575	0.0003776957
26	0xbc738480	-0.014863133
27	0x3d235423	0.03987516
28	0x3ae2d616	0.0017306234
29	0x3c9e18c0	0.019298911
30	0xbcccf34f	-0.025018362
31	0x3d560df0	0.052259386
32	0xbcee11a1	-0.02906114
33	0xbd80255a	-0.06257124
34	0xbcbb0261	-0.022828283
35	0xbd4f541e	-0.05061733
36	0xbc23eeab	-0.010005633
37	0xbc641966	-0.013922071
38	0xbd4ffa50	-0.050775826
39	0x3c83bc18	0.016080901
40	0x3c92e517	0.017931504
41	0x3afcdc47	0.0019291722
42	0xbca768d8	-0.020435736
43	0xbce97f1b	-0.028502991
44	0xbd8c3a09	-0.06847007
45	0xbd680a59	-0.056650493
46	0x3c0426ae	0.008065863
47	0xbcf7465e	-0.03018492
48	0xbcbac261	-0.022797765
49	0x3c415a14	0.011801261
50	0x3d248533	0.04016609
51	0x3cc91cb5	0.024549821
52	0x3cb7887c	0.022403948
53	0x3ceca4e3	0.028887218
54	0xb9f14016	-0.0004601485
55	0x3b9999bf	0.0046875174
56	0xbc9eaba1	-0.019368948
57	0xbd7fb838	-0.062431544
58	0xbd7a1e5d	-0.061064113
59	0xbc0dc6fd	-0.0086534
60	0x3c9127fb	0.01771926
61	0x3ca4838f	0.020082263
62	0xbc3c6115	-0.011497756
63	0x3da7460d	0.08167658
64	0x3c3ef7fd	0.011655805
65	0xbc2002f8	-0.009766333
66	0x3d142c16	0.036174856
67	0xbcfea079	-0.031082379
68	0xbc8622c3	-0.016373998
69	0xbce4b41b	-0.027917912
70	0x3cc4429d	0.023957545
71	0x3c482833	0.0122166155
72	0xbd875043	-0.066071056
73	0x3cbd2b81	0.023092033
74	0x3bced9e2	0.0063125947
75	0xbc879647	-0.01655115
76	0xbcfca989	-0.03084256
77	0xbd21d02f	-0.03950518
78	0x3d4a810f	0.049439486
79	0xbd385ab5	-0.04500838
80	0x3d41b6d8	0.047293514
81	0xbd0b40f1	-0.03399748
82	0x3d018e46	0.031629823
83	0xbd6793e1	-0.056537513
84	0xba5af4d9	-0.0008352525
85	0xbc2badef	-0.010478481
86	0xbc26422f	-0.010147615
87	0x3c174929	0.009233751
88	0xbd638554	-0.055547073
89	0xbd6c4ccc	-0.057690427
90	0xbce67b84	-0.028135069
91	0xbca899c9	-0.020581143
92	0xbc45ba51	-0.012068347
93	0x3d070360	0.032962203
94	0xbc820898	-0.015873238
95	0x3cd2eaca	0.025746722
96	0x3ce55de6	0.027998876
97	0x3dbdd4a4	0.092690736
98	0xbd761df2	-0.06008715
99	0xbcb7ce5d	-0.022437269
100	0xbd7d32cb	-0.061816018
101	0x3cbf7894	0.023372926
102	0x3ce848b6	0.028354984
103	0xbbc9d5ca	-0.006159519
104	0x3d438a59	0.04773936
105	0x3c179fb8	0.0092543885
106	0xbc37cf99	-0.011218929
107	0xbb26d891	-0.0025458673
108	0x3d392237	0.045198645
109	0xbd552309	-0.052035365
110	0xbcc15135	-0.023598293
111	0x3d024078	0.031799763
112	0x3bc993ab	0.0061516366
113	0x3c069076	0.008213153
114	0xbd09990e	-0.03359323
115	0xbd815e71	-0.063168414
116	0xbcd6c41f	-0.026216565
117	0xbd5c235f	-0.05374467
118	0xbb3351d3	-0.0027362003
119	0xbbdc8c79	-0.006730613
120	0xbbf6571c	-0.0075177085
121	0x3cdd1e45	0.026991973
122	0x3cf92d87	0.030417217
123	0xbd4e7389	-0.05040315
124	0x3d3fff1e	0.046874158
125	0x3cd14e09	0.025549905
126	0xbd6f111e	-0.058365934
127	0x3cb029ec	0.021504365

network_body._body_endoder.seq_layers.0.weight f4 [128, 6]
0	0x3e0e03e5	0.13868673
1	0x3ecafbe6	0.39645308
2	0xbe636b47	-0.22208892
3	0xbe3e11c3	-0.18561463
4	0x3d9eb7c2	0.07749893
5	0x3f32d15c	0.6985071
6	0x3c150f4b	0.009097884
7	0x3f43a452	0.7642261
8	0x3f3cfceb	0.7382342
9	0x3d50f8f8	0.051018685
10	0xbd695f5f	-0.05697572
11	0x3ef8cf98	0.4859588
12	0x3ed80022	0.421876
13	0x3f47e320	0.7808094
14	0x3d9d3e9d	0.07677958
15	0x3d307c9b	0.043087583
16	0xbf73a32d	-0.9517086
17	0x3f0bc9c5	0.5460475
18	0xbee6cf82	-0.4508019
19	0x3dcaf364	0.09909704
20	0xbf241d56	-0.64107263
21	0x3e35891e	0.17728087
22	0xbe52c127	-0.20581494
23	0xbe92b37d	-0.28652564
24	0xbe229147	-0.15875731
25	0x3f1535f2	0.5828544
26	0x3d9d8e51	0.0769316
27	0x3ea39803	0.31951913
28	0xbf5d5b61	-0.8646756
29	0x3e5b0ee5	0.213924
30	0x3ec00e7d	0.37511054
31	0xbec2b62d	-0.38029614
32	0x3eb1f8dd	0.3476018
33	0xbe688f79	-0.2271098
34	0x3e6d426b	0.23169868
35	0x3e1d66ba	0.15371218
36	0x3f0dd8d7	0.55408996
37	0x3e02ef3d	0.12786575
38	0xbe0ef747	-0.13961516
39	0xbf63d5ed	-0.889983
40	0xbf0bf783	-0.5467455
41	0xbde3670d	-0.1110364
42	0xbf1740f4	-0.59083486
43	0xbe96ae35	-0.29429784
44	0x3cf14230	0.029450506
45	0x3e14c892	0.14529637
46	0xbc399f38	-0.011329465
47	0xbd64b03c	-0.055832133
48	0x3f21db2f	0.6322507
49	0x3e8de65d	0.27714816
50	0xbf021811	-0.5081797
51	0xbe34620c	-0.17615527
52	0x3c95261f	0.018206654
53	0xbead43a5	-0.3384067
54	0xbc89878c	-0.016788267
55	0xbdae5441	-0.08512164
56	0xbf12fb51	-0.5741473
57	0x3e86f3d6	0.26357907
58	0x3ebf37ce	0.37347263
59	0xbe94f735	-0.29094854
60	0xbdbed103	-0.093172096
61	0xbadcc1e7	-0.0016842455
62	0xbea2658b	-0.31718096
63	0xbf52f257	-0.8240103
64	0xbee44ce6	-0.4458992
65	0xbebc7b1f	-0.36812684
66	0xbd6ce7fb	-0.05783842
67	0x3e44a1d9	0.19202365
68	0x3edf5e8a	0.43626815
69	0xbf4bfe4c	-0.796849
70	0x3edafdaf	0.4277167
71	0xbd7924e8	-0.060826212
72	0xbf3a1e9c	-0.72702956
73	0x3ed938fb	0.42426285
74	0x3f181921	0.59413344
75	0xbe423ff1	-0.18969704
76	0x3ea217a4	0.3165866
77	0x3e822173	0.25416145
78	0xbe50a5e3	-0.20375781
79	0x3e469823	0.19393973
80	0xbe2afa9e	-0.16697165
81	0x3b9a6be4	0.0047125686
82	0xbe6fd1b0	-0.23419833
83	0x3ec74b1e	0.38924497
84	0x3d3e9cb6	0.04653617
85	0xbf1ceaf3	-0.61296004
86	0x3eb76ba1	0.35824302
87	0xbe3ee720	-0.18642855
88	0xbddce075	-0.10784999
89	0x3d829502	0.06376077
90	0x3eeb7025	0.45983997
91	0x3df47327	0.11936026
92	0x3e368798	0.17825162
93	0xbf0f1bc8	-0.55901766
94	0xbefb66bd	-0.4910182
95	0x3e2d3311	0.16914012
96	0x3ef29de3	0.47386083
97	0xbda8dc7f	-0.08245181
98	0x3e1d08d7	0.15335403
99	0xbe273876	-0.16330132
100	0x3e3ca338	0.18421638
101	0xbe09327d	-0.13398166
102	0xbe91bd35	-0.28464666
103	0x3e4e9345	0.20173366
104	0x3ed97c8f	0.42477843
105	0x3d3f6d07	0.046734836
106	0x3f5c9257	0.86160797
107	0xbe8bf083	-0.27331933
108	0xbe9a8102	-0.3017655
109	0xbe2a9b06	-0.16660699
110	0xbe6e3ec8	-0.23266137
111	0x3ebc8785	0.36822143
112	0x3df6ad4d	0.12044773
113	0xbe8d98b0	-0.27655554
114	0xbe29651d	-0.16542478
115	0x3ba5b58a	0.0050570415
116	0x3f9b425b	1.2129625
117	0x3d655045	0.055984754
118	0xbe9fb857	-0.31195328
119	0xbef87fd1	-0.48535016
120	0x3d8c560b	0.06852349
121	0xbbada835	-0.005299593
122	0xbcd84013	-0.02639774
123	0x3df20ee3	0.11819246
124	0x3d0d1c33	0.03445072
125	0x3e921fb1	0.28539804
126	0xbccf2698	-0.025286958
127	0xbddc55bc	-0.1075854
128	0x3ed5bfe0	0.41747952
129	0xbe84d2cc	-0.25942075
130	0x3db73c30	0.08947027
131	0x3e67778c	0.22604197
132	0xbdeda644	-0.11603978
133	0xbdf43244	-0.1192365
134	0xbec23382	-0.37929922
135	0x3e5e46e6	0.21706733
136	0x3db39695	0.087689556
137	0xbed4fa24	-0.41597092
138	0x3d61968c	0.055075213
139	0xbeb6f382	-0.35732657
140	0x3c264285	0.010147695
141	0x3f01645d	0.5054377
142	0xbf06716d	-0.52516824
143	0x3f2e85eb	0.6817309
144	0x3d994c5a	0.07485266
145	0xbea8c393	-0.3296171
146	0xbf8c32ce	-1.0953004
147	0x3e4a43bb	0.197524
148	0xbedf2e15	-0.43589845
149	0x3e8f00d0	0.27930307
150	0x3e8de23e	0.27711672
151	0x3f004be7	0.5011582
152	0x3b8c2b49	0.004277621
153	0x3d60733a	0.05479739
154	0x3d1fe783	0.039039146
155	0xbf379696	-0.7171415
156	0xbe5b0de5	-0.21392019
157	0xbe5af8cf	-0.21383975
158	0x3dff795a	0.12474318
159	0x3d82fcb7	0.06395858
160	0x3e10255c	0.14076751
161	0xbe3109a8	-0.1728884
162	0xbce3d052	-0.027809296
163	0x3d705049	0.058670316
164	0xbb6a17ec	-0.0035719825
165	0x3f736330	0.95073223
166	0x3e68f180	0.22748375
167	0xbdd1bf5a	-0.102415755
168	0xbeb8cf87	-0.3609583
169	0x3f37d69f	0.7181186
170	0xbed84c4e	-0.42245716
171	0x3dd3f51a	0.10349484
172	0x3eb6f715	0.35735384
173	0xbe8dfc16	-0.2773139
174	0x3d14adb3	0.036298465
175	0xbe88fc15	-0.26754823
176	0x3ef271ad	0.47352353
177	0xbec22969	-0.37922218
178	0x3ef1600d	0.47143593
179	0xbf4eedd6	-0.8083166
180	0x3ed937e4	0.42425454
181	0x3da8fac4	0.08250955
182	0xbebd16b8	-0.36931396
183	0xbeb70dd9	-0.35752752
184	0x3e83eaaf	0.25764987
185	0x3d92c56f	0.07166564
186	0xbf11b6b9	-0.5691944
187	0xbee714b7	-0.45132992
188	0x3edaec35	0.42758337
189	0xbf42eea4	-0.76145387
190	0xbe0cb3c4	-0.1374045
191	0xbe85c967	-0.2613022
192	0x3edd1678	0.43181205
193	0xbdb5c731	-0.08875883
194	0xbebdb381	-0.37051013
195	0x3f2debaf	0.6793775
196	0x3e099151	0.1343434
197	0xbe049189	-0.12946142
198	0x3f2b77bd	0.6697958
199	0xbf2bf31f	-0.6716785
200	0xbe913ee1	-0.28368285
201	0x3d20f038	0.03929159
202	0x3e0bf98a	0.1366941
203	0xbdb080c4	-0.0861831
204	0xbe67b62d	-0.22628088
205	0xbec1e972	-0.37873417
206	0x3f2b3b57	0.6688742
207	0x3e3db46f	0.18525861
208	0xbf00c3ec	-0.50298953
209	0x3eb1fed0	0.3476472
210	0x3f6e39c1	0.93056875
211	0xbde60e61	-0.11233211
212	0xbef83bf9	-0.48483256
213	0x3d506eb6	0.050886832
214	0xbccfe949	-0.025379794
215	0xbee3987c	-0.44452274
216	0xbe5368de	-0.20645472
217	0x3e42e19d	0.19031377
218	0x3e9e75b4	0.30949175
219	0xbd92e6cb	-0.071729265
220	0x3dee92b3	0.116490744
221	0xbddb568a	-0.107098654
222	0xbe78275e	-0.24233767
223	0xbd9ac05b	-0.0755622
224	0xbe3a8d89	-0.18218054
225	0x3e40a32b	0.18812244
226	0xbe3a2815	-0.18179353
227	0xbe7cbbb6	-0.24680981
228	0x3e0d75ae	0.13814422
229	0xbe1b13ef	-0.15144323
230	0xbf22d4eb	-0.6360614
231	0x3eefa457	0.4680507
232	0xbea1dfc4	-0.31616032
233	0x3e6946fd	0.22780986
234	0x3da00a31	0.07814444
235	0x3eb8a9e3	0.36067113
236	0xbdf328de	-0.11873029
237	0x3f336f62	0.7009183
238	0x3f5b71f0	0.8572073
239	0xbe788606	-0.24269876
240	0xbe011eee	-0.12609455
241	0xbe04994c	-0.12949103
242	0xbe7f8f33	-0.2495697
243	0xbe8670c5	-0.2625791
244	0x3d626c27	0.055278923
245	0xbefdc3d3	-0.49563465
246	0xbec56df6	-0.38560456
247	0x3da830cf	0.082124345
248	0x3ea31d91	0.31858495
249	0xbe2a0550	-0.16603589
250	0x3e9b64d5	0.30350366
251	0xbf01bd6e	-0.5067967
252	0xbdc6c546	-0.09705596
253	0x3f60e36a	0.87847006
254	0xbf39cd28	-0.7257867
255	0xbdd57e94	-0.104245335

network_body._body_endoder.seq_layers.2.bias f4 [128]
0	0xbd9fa680	-0.07795429
1	0xbd43c3b7	-0.04779407
2	0x3cfe75b9	0.031061994
3	0xbd2fc9b8	-0.042916983
4	0xbd20fc44	-0.03930308
5	0x3bcc16d8	0.006228309
6	0xbd18a0be	-0.03726267
7	0x3d454bde	0.048168056
8	0x3ce19378	0.027536139
9	0x398402c8	0.00025179074
10	0x3d86a90f	0.06575214
11	0x3d515a48	0.05111149
12	0x3b925a3f	0.0044663246
13	0xbcb505ac	-0.022097431
14	0x3c7fe923	0.015619549
15	0xbd7210f9	-0.059098218
16	0x3ce89d5d	0.02839535
17	0xbd5c12d1	-0.053728882
18	0xbcdaad17	-0.026693864
19	0x3cbe75bf	0.023249505
20	0xbcb2287f	-0.021747826
21	0xbc90ea65	-0.017689893
22	0xbc26d243	-0.010181966
23	0xbcb85fd7	-0.022506637
24	0xbc775b51	-0.015097455
25	0xbaf66f1d	-0.0018801425
26	0xbc5afa2a	-0.013365308
27	0x3d10a32f	0.035311874
28	0xbd8724c7	-0.065988116
29	0x3c01cf4e	0.00792296
30	0x3ccbbd46	0.024870526
31	0x3c504500	0.012711763
32	0xbc6877c7	-0.014188713
33	0x3c996246	0.018723618
34	0xbb15377d	-0.002276867
35	0x3cc156a1	0.023600878
36	0xbcb213aa	-0.021737892
37	0xbd30b7d7	-0.043144073
38	0xbd1b04c1	-0.03784633
39	0xbc213da8	-0.00984136
40	0xbc997fd9	-0.01873772
41	0xbcf93260	-0.030419528
42	0x3d7bc7ea	0.06146995
43	0x3d9239ef	0.07139956
44	0x3ca009eb	0.01953598
45	0x3cd4bf59	0.025970148
46	0xbd13cf9a	-0.036086656
47	0x3d52254c	0.0513051
48	0x3cc89c26	0.02448852
49	0xbbd1a9f5	-0.0063984343
50	0x3cbb7ccd	0.022886658
51	0x3ca92c2f	0.020650951
52	0x3d276d3f	0.04087567
53	0xbc5ea07e	-0.013588069
54	0x3d08761e	0.03331577
55	0xbd62a4bb	-0.05533288
56	0xbc0807ab	-0.008302609
57	0x3c8331ce	0.01601496
58	0x3d4e1ff0	0.050323427
59	0xbd3894ef	-0.04506391
60	0x3d250f59	0.04029784
61	0xbcc64727	-0.02420385
62	0x3d1bddf9	0.038053486
63	0x3d18f1bb	0.037339907
64	0xbc8ef7e2	-0.017452184
65	0x3c6b6a42	0.014368596
66	0xbd256b10	-0.040385306
67	0x3aa40de6	0.0012516349
68	0xba86fb9d	-0.0010298375
69	0x3d284b31	0.041087333
70	0x3d35d430	0.04439181
71	0xbd5162bf	-0.051119562
72	0xbc151c76	-0.009101024
73	0xbd0d9e4e	-0.0345748
74	0x3d1541bf	0.036439653
75	0x3c1cc5a8	0.009568609
76	0x3d6edb33	0.058314513
77	0xbd03adfe	-0.032148354
78	0x3cdb2ecd	0.026755715
79	0x3d83e450	0.064400315
80	0xbcc10d1c	-0.023565821
81	0xbd0576f9	-0.032584164
82	0xbc7c85ca	-0.015412757
83	0x3c82e9f2	0.015980694
84	0xbc4b2890	-0.012399808
85	0x3c9236e6	0.017848443
86	0x3c92e2c3	0.017930394
87	0xbd372d8d	-0.044721175
88	0xbd455990	-0.048181117
89	0xbc841cf9	-0.016127096
90	0xbae1a1fe	-0.0017214415
91	0xbd2534b0	-0.04033345
92	0x3ba5c5b8	0.0050589703
93	0xb63b4212	-2.790363e-06
94	0xbc1a468b	-0.009416233
95	0x3d7a7867	0.06114998
96	0xbd306538	-0.04306528
97	0x3c2917ff	0.0103206625
98	0xbc50e89b	-0.01275077
99	0x3ce12886	0.027485143
100	0x3d818c88	0.06325632
101	0x3d1a323d	0.037645567
102	0xbd52697b	-0.051370125
103	0x3cb4d1b9	0.02207266
104	0x3cd85650	0.026408345
105	0xbc28a092	-0.010292189
106	0xbd40e431	-0.04709262
107	0xbcae59ef	-0.021283118
108	0xbcefd76b	-0.029277524
109	0xbc353df9	-0.011062139
110	0x3ba82fa7	0.0051326337
111	0x3b442882	0.002993137
112	0x3d6fd14c	0.05854921
113	0x3d3d98b1	0.046288196
114	0x3da723db	0.08161136
115	0x3cb8d9c6	0.02256478
116	0xbcc00abe	-0.023442622
117	0xbd664c49	-0.056225095
118	0x3d705427	0.058674004
119	0xbd0763cd	-0.03305416
120	0xbd74d8e3	-0.05977715
121	0xbc597274	-0.013271917
122	0x3aae8894	0.001331585
123	0xbcac0a1e	-0.021000918
124	0xbc7303f8	-0.014832489
125	0xbc41b392	-0.011822598
126	0x3cfbf872	0.030758116
127	0xbd18f1b3	-0.037339877

network_body._body_endoder.seq_layers.2.weight f4 [128, 128]
0	0x3e01d38a	0.12678352
1	0xbd6a4bc2	-0.057201155
2	0x3cf70e8f	0.03015831
3	0xbdbef57d	-0.09324167
4	0x3e51cc55	0.20488103
5	0x3c298b0e	0.010348095
6	0x3d64cd5e	0.055859916
7	0xbc102c81	-0.008799673
8	0x3dea31fc	0.11435315
9	0x3c17ff82	0.009277226
10	0xbc059fdf	-0.008155792
11	0xbbd118c7	-0.0063811275
12	0x3a52ef34	0.00080465083
13	0x3d025776	0.03182169
14	0xbdc09a2c	-0.09404406
15	0xbcddad92	-0.027060304
16	0x3d9bd773	0.07609453
17	0xbdccf4f1	-0.10007656
18	0x3d3d5d0c	0.046231315
19	0xbd99b9a7	-0.075061135
20	0x3d7e2b70	0.062053144
21	0x3da7c8de	0.08192609
22	0xbda1653d	-0.07880638
23	0x3d237f32	0.039916225
24	0xbe3127a9	-0.17300285
25	0xbdcd111c	-0.10013029
26	0xbd9a05c8	-0.07520634
27	0x3d8f1764	0.06986883
28	0xbd45f521	-0.048329476
29	0xbe12a1c5	-0.14319523
30	0x3daa58ed	0.083177425
31	0xbe0d0a60	-0.13773489
32	0x3deb1fc4	0.11480668
33	0x3e62a19a	0.22131959
34	0x3ddde1dc	0.10834095
35	0x3d4de46c	0.05026667
36	0xbd51c512	-0.05121333
37	0xbd8d32bb	-0.06894442
38	0xbd96bf11	-0.07360662
39	0x3e01199f	0.1260743
40	0xbba55de1	-0.0050465916
41	0xbd8b1186	-0.06790452
42	0xbe0898af	-0.13339494
43	0xbe1099a4	-0.14121109
44	0xbd1185df	-0.03552806
45	0x3df5e22c	0.120060295
46	0x3d457d1d	0.04821502
47	0x3d549498	0.051899523
48	0x3db9c24b	0.090702616
49	0xbe933bb6	-0.28756493
50	0x3d81fc8e	0.06346999
51	0x3d88a239	0.066715665
52	0x3dc4580d	0.09587107
53	0xbde0a12e	-0.109682426
54	0xbe0cf303	-0.13764577
55	0xbc943bc3	-0.018094903
56	0x3d3ea577	0.04654452
57	0xbd65a677	-0.056066956
58	0xbd47da86	-0.048792385
59	0xbc3f5263	-0.011677357
60	0xbda27814	-0.07933059
61	0xbcf6db1e	-0.03013378
62	0x3d5f0c8e	0.054455332
63	0x3e204a51	0.1565335
64	0x3d2bf854	0.04198487
65	0xbb994821	-0.004677788
66	0xbd85b90e	-0.06529437
67	0x3c4950c7	0.012287325
68	0x3dbbe5a2	0.09174658
69	0xbd089917	-0.033349123
70	0x3da3a9d0	0.079913735
71	0xbc9b085a	-0.01892488
72	0xbe4720b5	-0.1944607
73	0x3db5ce7a	0.08877273
74	0xbd93489f	-0.07191586
75	0x3df1a8a4	0.11799744
76	0xbd72b591	-0.059255186
77	0xbe4a2bd1	-0.19743277
78	0xbe07f94c	-0.13278693
79	0x3c1f588b	0.0097257
80	0x3e059c2b	0.13047855
81	0xbcc2ad0c	-0.023764156
82	0xbda57bff	-0.08080291
83	0x3cbb34a8	0.022852257
84	0xbe1c4f85	-0.1526471
85	0x3e20dbf1	0.15708901
86	0xbdfeec64	-0.12447432
87	0xbd712c61	-0.058880214
88	0xbdbcf4d8	-0.09226388
89	0x3df709dd	0.12062428
90	0xbb012b58	-0.0019709673
91	0x3dce13b6	0.10062353
92	0x3ce3fc04	0.027830131
93	0xbe7c7908	-0.24655545
94	0x3be96939	0.007123139
95	0xbd843f77	-0.064574175
96	0xbe3c7667	-0.18404542
97	0xbcadf099	-0.02123289
98	0x3d202f38	0.03910753
99	0x3e25277c	0.16128343
100	0xbca68fb3	-0.020332193
101	0x3e1987bd	0.14993186
102	0xbde24746	-0.110487506
103	0xbe211383	-0.157301
104	0x3ba446ca	0.0050133215
105	0x3d32691a	0.043557264
106	0x3d8488c5	0.06471399
107	0xbdc348e8	-0.0953539
108	0x3cbbad6f	0.022909848
109	0x3d8f86eb	0.070081554
110	0xba8451c5	-0.001009517
111	0x3c631f61	0.013862462
112	0xbbdc9bf7	-0.0067324596
113	0x3dbb9bc0	0.09160566
114	0xbbf2bfbd	-0.007408111
115	0x3e09f8f9	0.13473882
116	0x3d6533f8	0.055957764
117	0xbd735d58	-0.05941519
118	0xbe00daec	-0.12583512
119	0x3d8f9900	0.07011604
120	0x3db383b6	0.08765356
121	0xbec15d98	-0.3776672
122	0xbd2e70bf	-0.04258799
123	0xbbc0de24	-0.005885856
124	0xbd50f707	-0.051016834
125	0xbd0984a4	-0.03357376
126	0xbd11a5fa	-0.03555868
127	0x3d5f7531	0.05455512
128	0x3e19f4d0	0.15034795
129	0xbe44452a	-0.19167009
130	0x3da6fa6a	0.081532314
131	0xbd2d4f1e	-0.04231178
132	0x3d8cd80a	0.06877144
133	0x3c1f5c11	0.00972654
134	0xbdefaa5f	-0.117024176
135	0x3d8d1111	0.06888021
136	0xbdcde7c1	-0.10053969
137	0xbe342fde	-0.17596385
138	0xbe185be2	-0.148788
139	0xbd07996a	-0.03310529
140	0x3c5144ba	0.012772733
141	0x3c4fd349	0.012684652
142	0x3dce4279	0.100712724
143	0xbdf94b58	-0.12172574
144	0xbbe66f95	-0.0070323446
145	0x3e094c42	0.13407996
146	0xbde21454	-0.110390335
147	0x3d1dc7f5	0.038520772
148	0xbe42e53e	-0.19032761
149	0xbce0c98c	-0.027439855
150	0xbded2cd2	-0.115808144
151	0x3d36c89f	0.04462492
152	0xbd5e72fa	-0.05430887
153	0xbc96198e	-0.018322732
154	0x3e91845d	0.28421298
155	0x3c9f461b	0.019442609
156	0x3d413727	0.047171738
157	0x3cb1b2d2	0.021691713
158	0x3dbca9a2	0.092120424
159	0x3e0d186c	0.13778847
160	0xbd0edae3	-0.034876715
161	0xbdb2de2e	-0.08733784
162	0x3e2403df	0.16017102
163	0x3de63943	0.112413906
164	0xbd1ca2e7	-0.038241293
165	0x3d30eb1b	0.043192964
166	0xbd6d4960	-0.057931304
167	0x3e0c8e67	0.13726197
168	0xbe33f62b	-0.17574374
169	0x3da5097b	0.08058449
170	0x3d9de4a5	0.07709626
171	0xbd0311dc	-0.031999454
172	0xbcefda79	-0.02927898
173	0x3e01edeb	0.12688415
174	0xbabfc3a3	-0.0014630448
175	0x3e411d97	0.18858944
176	0xbdadf898	-0.08494681
177	0xbde40b84	-0.11135009
178	0x3d85c7ce	0.0653225
179	0x3e0e2f21	0.13885166
180	0xbccd74cf	-0.025080113
181	0x3db448ad	0.08802924
182	0x3d0a362c	0.03374307
183	0x3de3854d	0.111094095
184	0x3d4c6bc2	0.049907453
185	0x3d55d2c7	0.052202966
186	0x3e114f39	0.14190377
187	0xbb9ce954	-0.004788557
188	0xbd9be523	-0.07612064
189	0xbdbe058b	-0.09278401
190	0xbccc54ba	-0.024942745
191	0x3d8319f1	0.06401432
192	0x3e67415b	0.22583525
193	0x3d462f2c	0.04838483
194	0xbe03dc3c	-0.12876981
195	0x3e121155	0.14264424
196	0x3d88ccf0	0.06679714
197	0xbe118269	-0.14209904
198	0x3e4dcf9e	0.20098731
199	0xbd054714	-0.03253849
200	0x3d85b974	0.06529513
201	0x3c986172	0.018601153
202	0x3da330f9	0.07968325
203	0x3cde0556	0.027102154
204	0x3d39665e	0.04526364
205	0xbd18c390	-0.037295878
206	0x3d74312b	0.059617203
207	0xbb3dfa4f	-0.0028988307
208	0xbd313e3a	-0.043272234
209	0xbd463c8d	-0.04839759
210	0xbc9941ee	-0.018708196
211	0xbd8037cd	-0.06260643
212	0x3d754978	0.05988452
213	0x3d6733b7	0.056445803
214	0x3dbae5c2	0.09125854
215	0xbd2d41f5	-0.04229923
216	0xbd5b2f07	-0.053511646
217	0x3a9c850a	0.0011941504
218	0x3e44d2e0	0.19221067
219	0xbb81a5ce	-0.003956533
220	0xbd9e72c7	-0.07736736
221	0xbdf7dbdb	-0.12102481
222	0xbdc9bb19	-0.09850139
223	0x3cc1622b	0.02360638
224	0xbdf71891	-0.120652325
225	0x3e3636a8	0.17794287
226	0x3d9d56dd	0.076825835
227	0xbe1b3731	-0.15157773
228	0x3c99dc0f	0.01878169
229	0x3c848d4c	0.016180657
230	0xbd2cc0c0	-0.04217601
231	0x3dc2d600	0.095134735
232	0x3d7fe4fb	0.062474232
233	0x3caf4c10	0.021398574
234	0x3df6426e	0.12024389
235	0xbc472e39	-0.012157016
236	0xbdd1405d	-0.102173544
237	0xbdfdbaed	-0.12389169
238	0x3c050969	0.008119919
239	0x3c78fb42	0.015196623
240	0xbdba544b	-0.09098109
241	0xbe510d26	-0.20415172
242	0x3d86ec3c	0.06588027
243	0x3d87eb8f	0.06636726
244	0xbd3b18c2	-0.045677908
245	0xbdeae3f1	-0.114692576
246	0x3c539121	0.012913019
247	0xbdea2bc6	-0.1143413
248	0xbdb738bb	-0.08946367
249	0xbe09885b	-0.13430922
250	0xbdf7d7d5	-0.121017136
251	0xbe6265b4	-0.22109109
252	0xbde982ea	-0.11401923
253	0x3e0ff4b2	0.14058188
254	0xbd3fc43c	-0.046818003
255	0xbdc3bacc	-0.09557113
